…
Total of 3044 inputs loaded @ C:/Users/ATIL/Desktop/Dataset/inputsFrom_max_sample_set/
Total of 5 classes
2435 steps for training, 609 steps for test
Splitting Train and Test Data...
------Model for FrMgPh------
---LSTM Classifier---
Train Batch: (2435, 7991, 42)
Test Batch: (609, 7991, 42)
Optimizer: <keras.optimizers.Adam object at 0x000001CD84016198>
Learning Rate: 0.001
Loss func: <function categorical_crossentropy at 0x000001CD81247048>
_________________________________________________________________
Layer (type)                 Output Shape              Param #   
=================================================================
conv1d_1 (Conv1D)            (None, 166, 8)            16136     
_________________________________________________________________
activation_1 (Activation)    (None, 166, 8)            0         
_________________________________________________________________
conv1d_2 (Conv1D)            (None, 6, 16)             3088      
_________________________________________________________________
activation_2 (Activation)    (None, 6, 16)             0         
_________________________________________________________________
lstm_1 (LSTM)                (None, 6, 24)             3936      
_________________________________________________________________
lstm_2 (LSTM)                (None, 12)                1776      
_________________________________________________________________
dense_1 (Dense)              (None, 5)                 65        
=================================================================
Total params: 25,001
Trainable params: 25,001
Non-trainable params: 0
_________________________________________________________________

Training:
Epoch #1: Loss:1.6124, Accuracy:0.2136, Validation Loss:1.6084, Validation Accuracy:0.2332
Epoch #2: Loss:1.6072, Accuracy:0.2329, Validation Loss:1.6042, Validation Accuracy:0.2332
…
