…
Total of 3044 inputs loaded @ C:/Users/ATIL/Desktop/Dataset/inputsFrom_max_sample_set/
Total of 15 classes
2435 steps for training, 609 steps for test
Splitting Train and Test Data...
------Model for Freqs------
---LSTM Classifier---
Train Batch: (2435, 7991, 28)
Test Batch: (609, 7991, 28)
Optimizer: <keras.optimizers.Adam object at 0x000002398091D278>
Learning Rate: 0.001
Loss func: <function categorical_crossentropy at 0x00000239E8E36EA0>
_________________________________________________________________
Layer (type)                 Output Shape              Param #   
=================================================================
conv1d_1 (Conv1D)            (None, 166, 8)            10760     
_________________________________________________________________
activation_1 (Activation)    (None, 166, 8)            0         
_________________________________________________________________
conv1d_2 (Conv1D)            (None, 6, 16)             3088      
_________________________________________________________________
activation_2 (Activation)    (None, 6, 16)             0         
_________________________________________________________________
lstm_1 (LSTM)                (None, 6, 24)             3936      
_________________________________________________________________
lstm_2 (LSTM)                (None, 12)                1776      
_________________________________________________________________
dense_1 (Dense)              (None, 15)                195       
=================================================================
Total params: 19,755
Trainable params: 19,755
Non-trainable params: 0
_________________________________________________________________

Training:
Epoch #1: Loss:2.7307, Accuracy:0.0493, Validation Loss:2.7186, Validation Accuracy:0.0476
Epoch #2: Loss:2.7118, Accuracy:0.0546, Validation Loss:2.7081, Validation Accuracy:0.0706
…
