…
Total of 12176 inputs loaded @ C:/Users/ATIL/Desktop/Dataset/inputsFrom_max_sample_set/
Total of 5 classes
9740 steps for training, 2436 steps for test
Splitting Train and Test Data...
------Model for Freqs------
---LSTM Classifier---
Train Batch: (9740, 7991, 7)
Test Batch: (2436, 7991, 7)
Optimizer: <keras.optimizers.Adam object at 0x0000017780321E80>
Learning Rate: 0.001
Loss func: <function categorical_crossentropy at 0x00000177C7446EA0>
_________________________________________________________________
Layer (type)                 Output Shape              Param #   
=================================================================
conv1d_1 (Conv1D)            (None, 166, 8)            2696      
_________________________________________________________________
activation_1 (Activation)    (None, 166, 8)            0         
_________________________________________________________________
conv1d_2 (Conv1D)            (None, 6, 16)             3088      
_________________________________________________________________
activation_2 (Activation)    (None, 6, 16)             0         
_________________________________________________________________
lstm_1 (LSTM)                (None, 6, 24)             3936      
_________________________________________________________________
lstm_2 (LSTM)                (None, 12)                1776      
_________________________________________________________________
dense_1 (Dense)              (None, 5)                 65        
=================================================================
Total params: 11,561
Trainable params: 11,561
Non-trainable params: 0
_________________________________________________________________

Training:
Epoch #1: Loss:1.6067, Accuracy:0.2253, Validation Loss:1.6042, Validation Accuracy:0.2328
Epoch #2: Loss:1.6047, Accuracy:0.2331, Validation Loss:1.6046, Validation Accuracy:0.2328
…
