…
Total of 12176 inputs loaded @ C:/Users/ATIL/Desktop/Dataset/inputsFrom_max_sample_set/
Total of 3 classes
9740 steps for training, 2436 steps for test
Splitting Train and Test Data...
------Model for Phases------
---LSTM Classifier---
Train Batch: (9740, 7991, 7)
Test Batch: (2436, 7991, 7)
Optimizer: <keras.optimizers.Adam object at 0x0000027D2760CE80>
Learning Rate: 0.001
Loss func: <function categorical_crossentropy at 0x0000027D24CD6EA0>
_________________________________________________________________
Layer (type)                 Output Shape              Param #   
=================================================================
conv1d_1 (Conv1D)            (None, 166, 8)            2696      
_________________________________________________________________
activation_1 (Activation)    (None, 166, 8)            0         
_________________________________________________________________
conv1d_2 (Conv1D)            (None, 6, 16)             3088      
_________________________________________________________________
activation_2 (Activation)    (None, 6, 16)             0         
_________________________________________________________________
lstm_1 (LSTM)                (None, 6, 24)             3936      
_________________________________________________________________
lstm_2 (LSTM)                (None, 12)                1776      
_________________________________________________________________
dense_1 (Dense)              (None, 3)                 39        
=================================================================
Total params: 11,535
Trainable params: 11,535
Non-trainable params: 0
_________________________________________________________________

Training:
Epoch #1: Loss:1.0783, Accuracy:0.3775, Validation Loss:1.0751, Validation Accuracy:0.3998
Epoch #2: Loss:1.0748, Accuracy:0.3961, Validation Loss:1.0739, Validation Accuracy:0.3908
…
