…
Total of 3046 inputs loaded @ C:/Users/ATIL/Desktop/Dataset/inputsFrom_max_sample_set/
Total of 15 classes
2436 steps for training, 610 steps for test
Splitting Train and Test Data...
------Model for Freqs------
---LSTM Classifier---
Train Batch: (2436, 11988, 9)
Test Batch: (610, 11988, 9)
Optimizer: <keras.optimizers.Adam object at 0x000001D06DE10898>
Learning Rate: 0.001
Loss func: <function categorical_crossentropy at 0x000001D004DF6A60>
_________________________________________________________________
Layer (type)                 Output Shape              Param #   
=================================================================
conv1d_1 (Conv1D)            (None, 249, 8)            3464      
_________________________________________________________________
activation_1 (Activation)    (None, 249, 8)            0         
_________________________________________________________________
conv1d_2 (Conv1D)            (None, 10, 16)            3088      
_________________________________________________________________
activation_2 (Activation)    (None, 10, 16)            0         
_________________________________________________________________
lstm_1 (LSTM)                (None, 10, 24)            3936      
_________________________________________________________________
lstm_2 (LSTM)                (None, 12)                1776      
_________________________________________________________________
dense_1 (Dense)              (None, 15)                195       
=================================================================
Total params: 12,459
Trainable params: 12,459
Non-trainable params: 0
_________________________________________________________________

Training:
Epoch #1: Loss:2.7041, Accuracy:0.0821 Validation Loss:2.6975, Validation Accuracy:0.0836
Epoch #2: Loss:2.6945, Accuracy:0.0829 Validation Loss:2.6896, Validation Accuracy:0.0803
…
