…
Total of 12176 inputs loaded @ C:/Users/ATIL/Desktop/Dataset/inputsFrom_max_sample_set/
Total of 15 classes
9740 steps for training, 2436 steps for test
Splitting Train and Test Data...
------Model for Mags------
---LSTM Classifier---
Train Batch: (9740, 7991, 7)
Test Batch: (2436, 7991, 7)
Optimizer: <keras.optimizers.Adam object at 0x000002090C0DFF98>
Learning Rate: 0.001
Loss func: <function categorical_crossentropy at 0x0000020949E46EA0>
_________________________________________________________________
Layer (type)                 Output Shape              Param #   
=================================================================
conv1d_1 (Conv1D)            (None, 166, 8)            2696      
_________________________________________________________________
activation_1 (Activation)    (None, 166, 8)            0         
_________________________________________________________________
conv1d_2 (Conv1D)            (None, 6, 16)             3088      
_________________________________________________________________
activation_2 (Activation)    (None, 6, 16)             0         
_________________________________________________________________
lstm_1 (LSTM)                (None, 6, 24)             3936      
_________________________________________________________________
lstm_2 (LSTM)                (None, 12)                1776      
_________________________________________________________________
dense_1 (Dense)              (None, 15)                195       
=================================================================
Total params: 11,691
Trainable params: 11,691
Non-trainable params: 0
_________________________________________________________________

Training:
Epoch #1: Loss:2.6972, Accuracy:0.0890, Validation Loss:2.6863, Validation Accuracy:0.0891
Epoch #2: Loss:2.6813, Accuracy:0.0810, Validation Loss:2.6752, Validation Accuracy:0.0813
…
