…
Total of 3046 inputs loaded @ C:/Users/ATIL/Desktop/Dataset/inputsFrom_max_sample_set/
Total of 5 classes
2436 steps for training, 610 steps for test
Splitting Train and Test Data...
------Model for Phases------
---LSTM Classifier---
Train Batch: (2436, 7989, 36)
Test Batch: (610, 7989, 36)
Optimizer: <keras.optimizers.Adam object at 0x0000022D89F129B0>
Learning Rate: 0.001
Loss func: <function categorical_crossentropy at 0x0000022D88C86AE8>
_________________________________________________________________
Layer (type)                 Output Shape              Param #   
=================================================================
conv1d_1 (Conv1D)            (None, 166, 8)            13832     
_________________________________________________________________
activation_1 (Activation)    (None, 166, 8)            0         
_________________________________________________________________
conv1d_2 (Conv1D)            (None, 6, 16)             3088      
_________________________________________________________________
activation_2 (Activation)    (None, 6, 16)             0         
_________________________________________________________________
lstm_1 (LSTM)                (None, 6, 24)             3936      
_________________________________________________________________
lstm_2 (LSTM)                (None, 12)                1776      
_________________________________________________________________
dense_1 (Dense)              (None, 5)                 65        
=================================================================
Total params: 22,697
Trainable params: 22,697
Non-trainable params: 0
_________________________________________________________________

Training:
Epoch #1: Loss:1.6176, Accuracy:0.2003 Validation Loss:1.6119, Validation Accuracy:0.2066
Epoch #2: Loss:1.6095, Accuracy:0.2036 Validation Loss:1.6082, Validation Accuracy:0.2016
…
