…
Total of 3046 inputs loaded @ C:/Users/ATIL/Desktop/Dataset/inputsFrom_max_sample_set/
Total of 15 classes
2436 steps for training, 610 steps for test
Splitting Train and Test Data...
------Model for nPhases------
---LSTM Classifier---
Train Batch: (2436, 7989, 36)
Test Batch: (610, 7989, 36)
Optimizer: <keras.optimizers.Adam object at 0x000001ED0019FBA8>
Learning Rate: 0.001
Loss func: <function categorical_crossentropy at 0x000001ED5B0C6AE8>
_________________________________________________________________
Layer (type)                 Output Shape              Param #   
=================================================================
conv1d_1 (Conv1D)            (None, 166, 8)            13832     
_________________________________________________________________
activation_1 (Activation)    (None, 166, 8)            0         
_________________________________________________________________
conv1d_2 (Conv1D)            (None, 6, 16)             3088      
_________________________________________________________________
activation_2 (Activation)    (None, 6, 16)             0         
_________________________________________________________________
lstm_1 (LSTM)                (None, 6, 24)             3936      
_________________________________________________________________
lstm_2 (LSTM)                (None, 12)                1776      
_________________________________________________________________
dense_1 (Dense)              (None, 15)                195       
=================================================================
Total params: 22,827
Trainable params: 22,827
Non-trainable params: 0
_________________________________________________________________

Training:
Epoch #1: Loss:2.7136, Accuracy:0.0850 Validation Loss:2.7060, Validation Accuracy:0.0852
Epoch #2: Loss:2.7015, Accuracy:0.0846 Validation Loss:2.6985, Validation Accuracy:0.0852
…
