…
Total of 3044 inputs loaded @ C:/Users/ATIL/Desktop/Dataset/inputsFrom_max_sample_set/
Total of 15 classes
2435 steps for training, 609 steps for test
Splitting Train and Test Data...
------Model for nFreqs------
---LSTM Classifier---
Train Batch: (2435, 7991, 7)
Test Batch: (609, 7991, 7)
Optimizer: <keras.optimizers.Adam object at 0x000001930525D240>
Learning Rate: 0.001
Loss func: <function categorical_crossentropy at 0x000001937A3F6EA0>
_________________________________________________________________
Layer (type)                 Output Shape              Param #   
=================================================================
conv1d_1 (Conv1D)            (None, 166, 8)            2696      
_________________________________________________________________
activation_1 (Activation)    (None, 166, 8)            0         
_________________________________________________________________
conv1d_2 (Conv1D)            (None, 6, 16)             3088      
_________________________________________________________________
activation_2 (Activation)    (None, 6, 16)             0         
_________________________________________________________________
lstm_1 (LSTM)                (None, 6, 24)             3936      
_________________________________________________________________
lstm_2 (LSTM)                (None, 12)                1776      
_________________________________________________________________
dense_1 (Dense)              (None, 15)                195       
=================================================================
Total params: 11,691
Trainable params: 11,691
Non-trainable params: 0
_________________________________________________________________

Training:
Epoch #1: Loss:2.7153, Accuracy:0.0637, Validation Loss:2.7052, Validation Accuracy:0.0788
Epoch #2: Loss:2.7012, Accuracy:0.0747, Validation Loss:2.6938, Validation Accuracy:0.0870
…
