…
Total of 3044 inputs loaded @ C:/Users/ATIL/Desktop/Dataset/inputsFrom_max_sample_set/
Total of 15 classes
2435 steps for training, 609 steps for test
Splitting Train and Test Data...
------Model for Freqs------
---LSTM Classifier---
Train Batch: (2435, 7988, 28)
Test Batch: (609, 7988, 28)
Optimizer: <keras.optimizers.Adam object at 0x0000012B0058E278>
Learning Rate: 0.001
Loss func: <function categorical_crossentropy at 0x0000012B67CE7EA0>
_________________________________________________________________
Layer (type)                 Output Shape              Param #   
=================================================================
conv1d_1 (Conv1D)            (None, 166, 8)            10760     
_________________________________________________________________
activation_1 (Activation)    (None, 166, 8)            0         
_________________________________________________________________
conv1d_2 (Conv1D)            (None, 6, 16)             3088      
_________________________________________________________________
activation_2 (Activation)    (None, 6, 16)             0         
_________________________________________________________________
lstm_1 (LSTM)                (None, 6, 24)             3936      
_________________________________________________________________
lstm_2 (LSTM)                (None, 12)                1776      
_________________________________________________________________
dense_1 (Dense)              (None, 15)                195       
=================================================================
Total params: 19,755
Trainable params: 19,755
Non-trainable params: 0
_________________________________________________________________

Training:
Epoch #1: Loss:2.6970, Accuracy:0.0854, Validation Loss:2.6917, Validation Accuracy:0.0854
Epoch #2: Loss:2.6890, Accuracy:0.0846, Validation Loss:2.6834, Validation Accuracy:0.0854
…
