…
Total of 3046 inputs loaded @ C:/Users/ATIL/Desktop/Dataset/inputsFrom_max_sample_set/
Total of 5 classes
2436 steps for training, 610 steps for test
Splitting Train and Test Data...
------Model for Mags------
---LSTM Classifier---
Train Batch: (2436, 11988, 9)
Test Batch: (610, 11988, 9)
Optimizer: <keras.optimizers.Adam object at 0x000001F738E526A0>
Learning Rate: 0.001
Loss func: <function categorical_crossentropy at 0x000001F6CDF36A60>
_________________________________________________________________
Layer (type)                 Output Shape              Param #   
=================================================================
conv1d_1 (Conv1D)            (None, 249, 8)            3464      
_________________________________________________________________
activation_1 (Activation)    (None, 249, 8)            0         
_________________________________________________________________
conv1d_2 (Conv1D)            (None, 10, 16)            3088      
_________________________________________________________________
activation_2 (Activation)    (None, 10, 16)            0         
_________________________________________________________________
lstm_1 (LSTM)                (None, 10, 24)            3936      
_________________________________________________________________
lstm_2 (LSTM)                (None, 12)                1776      
_________________________________________________________________
dense_1 (Dense)              (None, 5)                 65        
=================================================================
Total params: 12,329
Trainable params: 12,329
Non-trainable params: 0
_________________________________________________________________

Training:
Epoch #1: Loss:1.6148, Accuracy:0.2003 Validation Loss:1.6078, Validation Accuracy:0.2066
Epoch #2: Loss:1.6079, Accuracy:0.2172 Validation Loss:1.6073, Validation Accuracy:0.2328
…
