…
Total of 3044 inputs loaded @ D:/atili/MMIExt/Audacity/METU Recordings/Dataset/maxLast5-moveBacktoSet/
Total of 15 classes
2435 steps for training, 609 steps for test
Splitting Train and Test Data...
------Model for FrMgPh------
---LSTM Classifier---
Train Batch: (2435, 7991, 7)
Test Batch: (609, 7991, 7)
Optimizer: <keras.optimizers.Adam object at 0x000001FD8190CFD0>
Learning Rate: 0.001
Loss func: <function categorical_crossentropy at 0x000001FD72691A60>
_________________________________________________________________
Layer (type)                 Output Shape              Param #   
=================================================================
conv1d_1 (Conv1D)            (None, 662, 8)            2696      
_________________________________________________________________
dropout_1 (Dropout)          (None, 662, 8)            0         
_________________________________________________________________
conv1d_2 (Conv1D)            (None, 105, 16)           4624      
_________________________________________________________________
dropout_2 (Dropout)          (None, 105, 16)           0         
_________________________________________________________________
conv1d_3 (Conv1D)            (None, 41, 32)            12320     
_________________________________________________________________
dropout_3 (Dropout)          (None, 41, 32)            0         
_________________________________________________________________
conv1d_4 (Conv1D)            (None, 9, 64)             49216     
_________________________________________________________________
lstm_1 (LSTM)                (None, 9, 64)             33024     
_________________________________________________________________
lstm_2 (LSTM)                (None, 32)                12416     
_________________________________________________________________
dense_1 (Dense)              (None, 15)                495       
=================================================================
Total params: 114,791
Trainable params: 114,791
Non-trainable params: 0
_________________________________________________________________

Training:
Epoch #1: Loss:2.7053, Accuracy:0.0887, Validation Loss:2.6982, Validation Accuracy:0.1018
Epoch #2: Loss:2.6850, Accuracy:0.1023, Validation Loss:2.6675, Validation Accuracy:0.1018
…
