…
Total of 2627 inputs loaded @ D:/atili/MMIExt/Audacity/METU Recordings/Dataset/breaths_max_sample_set/
Total of 13 classes
2048 steps for training, 579 steps for test
Splitting Train and Test Data...
------Model for Mags------
---LSTM Classifier---
Train Batch: (2048, 11988, 4)
Test Batch: (579, 11988, 4)
Optimizer: <keras.optimizers.Adam object at 0x000001D50516FD68>
Learning Rate: 0.001
Loss func: <function categorical_crossentropy at 0x000001D54E6F31E0>
_________________________________________________________________
Layer (type)                 Output Shape              Param #   
=================================================================
conv1d_1 (Conv1D)            (None, 249, 8)            1544      
_________________________________________________________________
activation_1 (Activation)    (None, 249, 8)            0         
_________________________________________________________________
conv1d_2 (Conv1D)            (None, 10, 16)            3088      
_________________________________________________________________
activation_2 (Activation)    (None, 10, 16)            0         
_________________________________________________________________
lstm_1 (LSTM)                (None, 10, 24)            3936      
_________________________________________________________________
lstm_2 (LSTM)                (None, 12)                1776      
_________________________________________________________________
dense_1 (Dense)              (None, 13)                169       
=================================================================
Total params: 10,513
Trainable params: 10,513
Non-trainable params: 0
_________________________________________________________________

Training:
Epoch #1: Loss:2.5680, Accuracy:0.0596 Validation Loss:2.5615, Validation Accuracy:0.0604
Epoch #2: Loss:2.5585, Accuracy:0.0786 Validation Loss:2.5539, Validation Accuracy:0.1036
…
