…
Total of 2627 inputs loaded @ D:/atili/MMIExt/Audacity/METU Recordings/Dataset/inputsFrom_max_sample_set/
Total of 13 classes
2048 steps for training, 579 steps for test
Splitting Train and Test Data...
------Model for FrMgPh------
---LSTM Classifier---
Train Batch: (2048, 11988, 27)
Test Batch: (579, 11988, 27)
Optimizer: <keras.optimizers.Adam object at 0x000001B4806F2F28>
Learning Rate: 0.001
Loss func: <function categorical_crossentropy at 0x000001B4B9983510>
_________________________________________________________________
Layer (type)                 Output Shape              Param #   
=================================================================
conv1d_1 (Conv1D)            (None, 249, 8)            10376     
_________________________________________________________________
activation_1 (Activation)    (None, 249, 8)            0         
_________________________________________________________________
conv1d_2 (Conv1D)            (None, 10, 16)            3088      
_________________________________________________________________
activation_2 (Activation)    (None, 10, 16)            0         
_________________________________________________________________
lstm_1 (LSTM)                (None, 10, 24)            3936      
_________________________________________________________________
lstm_2 (LSTM)                (None, 12)                1776      
_________________________________________________________________
dense_1 (Dense)              (None, 13)                169       
=================================================================
Total params: 19,345
Trainable params: 19,345
Non-trainable params: 0
_________________________________________________________________

Training:
Epoch #1: Loss:2.5685, Accuracy:0.1055 Validation Loss:2.5648, Validation Accuracy:0.1019
Epoch #2: Loss:2.5588, Accuracy:0.0981 Validation Loss:2.5564, Validation Accuracy:0.0725
…
