…
Name: conv1d_2, Filters: 16, Kernel Size: (36,), Strides: (6,), Activation: relu.
Name: conv1d_3, Filters: 32, Kernel Size: (24,), Strides: (2,), Activation: relu.
Name: conv1d_4, Filters: 64, Kernel Size: (24,), Strides: (2,), Activation: relu.
Optimizer: <keras.optimizers.Adam object at 0x0000027D86EC6FD0>
Learning Rate: 0.001
Loss func: <function categorical_crossentropy at 0x0000027DCE016950>
_________________________________________________________________
Layer (type)                 Output Shape              Param #   
=================================================================
conv1d_1 (Conv1D)            (None, 2397, 8)           3464      
_________________________________________________________________
conv1d_2 (Conv1D)            (None, 394, 16)           4624      
_________________________________________________________________
conv1d_3 (Conv1D)            (None, 186, 32)           12320     
_________________________________________________________________
conv1d_4 (Conv1D)            (None, 82, 64)            49216     
_________________________________________________________________
gru_1 (GRU)                  (None, 82, 64)            24768     
_________________________________________________________________
gru_2 (GRU)                  (None, 32)                9312      
_________________________________________________________________
dense_1 (Dense)              (None, 20)                660       
=================================================================
Total params: 104,364
Trainable params: 104,364
Non-trainable params: 0
_________________________________________________________________

Training:
Epoch #1: Loss:2.9875, Accuracy:0.0641, Validation Loss:2.9547, Validation Accuracy:0.0879
Epoch #2: Loss:2.9346, Accuracy:0.0867, Validation Loss:2.9286, Validation Accuracy:0.0854
…
