…
Total of 2627 inputs loaded @ D:/atili/MMIExt/Audacity/METU Recordings/Dataset/inputsFrom_max_sample_set/
Total of 13 classes
2048 steps for training, 579 steps for test
------Model for Mags------
Train Batch: (2048, 11988, 36)
Test Batch: (579, 11988, 36)
Optimizer: <keras.optimizers.Adam object at 0x000001F880FEFB00>
Learning Rate: 0.001
Loss func: <function categorical_crossentropy at 0x000001F8D99F80D0>
_________________________________________________________________
Layer (type)                 Output Shape              Param #   
=================================================================
conv1d_1 (Conv1D)            (None, 249, 8)            13832     
_________________________________________________________________
activation_1 (Activation)    (None, 249, 8)            0         
_________________________________________________________________
conv1d_2 (Conv1D)            (None, 10, 16)            3088      
_________________________________________________________________
activation_2 (Activation)    (None, 10, 16)            0         
_________________________________________________________________
lstm_1 (LSTM)                (None, 10, 24)            3936      
_________________________________________________________________
lstm_2 (LSTM)                (None, 12)                1776      
_________________________________________________________________
dense_1 (Dense)              (None, 13)                169       
=================================================================
Total params: 22,801
Trainable params: 22,801
Non-trainable params: 0
_________________________________________________________________

Training:
Epoch #1: Loss:2.5476, Accuracy:0.1030
Epoch #2: Loss:2.5395, Accuracy:0.1118
Epoch #3: Loss:2.5339, Accuracy:0.1187
Epoch #4: Loss:2.5304, Accuracy:0.1187
Epoch #5: Loss:2.5273, Accuracy:0.1187
…
