…
Name: conv1d_2, Filters: 32, Kernel Size: (48,), Strides: (6,), Activation: linear.
Name: dropout_2, Rate: 0.5.
Name: conv1d_3, Filters: 64, Kernel Size: (24,), Strides: (2,), Activation: linear.
Name: dropout_3, Rate: 0.5.
Name: dropout_4, Rate: 0.5.
Optimizer: <keras.optimizers.Adam object at 0x0000023B9C3955C0>
Learning Rate: 0.001
Loss func: <function categorical_crossentropy at 0x0000023AED7639D8>
_________________________________________________________________
Layer (type)                 Output Shape              Param #   
=================================================================
conv1d_1 (Conv1D)            (None, 2393, 16)          13840     
_________________________________________________________________
dropout_1 (Dropout)          (None, 2393, 16)          0         
_________________________________________________________________
conv1d_2 (Conv1D)            (None, 391, 32)           24608     
_________________________________________________________________
dropout_2 (Dropout)          (None, 391, 32)           0         
_________________________________________________________________
conv1d_3 (Conv1D)            (None, 184, 64)           49216     
_________________________________________________________________
dropout_3 (Dropout)          (None, 184, 64)           0         
_________________________________________________________________
cu_dnngru_1 (CuDNNGRU)       (None, 184, 64)           24960     
_________________________________________________________________
dropout_4 (Dropout)          (None, 184, 64)           0         
_________________________________________________________________
cu_dnngru_2 (CuDNNGRU)       (None, 32)                9408      
_________________________________________________________________
dense_1 (Dense)              (None, 20)                660       
=================================================================
Total params: 122,692
Trainable params: 122,692
Non-trainable params: 0
_________________________________________________________________

Training:
Epoch #1: Loss:2.9867, Accuracy:0.0559, Validation Loss:2.9652, Validation Accuracy:0.0503
Epoch #2: Loss:2.9470, Accuracy:0.0710, Validation Loss:2.9182, Validation Accuracy:0.0678
…
