…
Total of 2627 inputs loaded @ D:/atili/MMIExt/Audacity/METU Recordings/Dataset/inputsFrom_max_sample_set/
Total of 13 classes
2048 steps for training, 579 steps for test
Splitting Train and Test Data...
------Model for MgPh------
---LSTM Classifier---
Train Batch: (2048, 11988, 18)
Test Batch: (579, 11988, 18)
Optimizer: <keras.optimizers.Adam object at 0x000001B0877D2EF0>
Learning Rate: 0.001
Loss func: <function categorical_crossentropy at 0x000001B0FCA52510>
_________________________________________________________________
Layer (type)                 Output Shape              Param #   
=================================================================
conv1d_1 (Conv1D)            (None, 249, 8)            6920      
_________________________________________________________________
activation_1 (Activation)    (None, 249, 8)            0         
_________________________________________________________________
conv1d_2 (Conv1D)            (None, 10, 16)            3088      
_________________________________________________________________
activation_2 (Activation)    (None, 10, 16)            0         
_________________________________________________________________
lstm_1 (LSTM)                (None, 10, 24)            3936      
_________________________________________________________________
lstm_2 (LSTM)                (None, 12)                1776      
_________________________________________________________________
dense_1 (Dense)              (None, 13)                169       
=================================================================
Total params: 15,889
Trainable params: 15,889
Non-trainable params: 0
_________________________________________________________________

Training:
Epoch #1: Loss:2.5622, Accuracy:0.1030 Validation Loss:2.5549, Validation Accuracy:0.1036
Epoch #2: Loss:2.5499, Accuracy:0.1030 Validation Loss:2.5446, Validation Accuracy:0.1054
…
