…
Name: conv1d_3, Filters: 32, Kernel Size: (24,), Strides: (2,), Activation: relu.
Name: conv1d_4, Filters: 64, Kernel Size: (24,), Strides: (2,), Activation: relu.
Name: lstm_1, Units: 64, Activation: tanh.
Name: lstm_2, Units: 32, Activation: relu.
Optimizer: <keras.optimizers.Adam object at 0x0000013C00CC7400>
Learning Rate: 0.001
Loss func: <function categorical_crossentropy at 0x0000013C18795950>
_________________________________________________________________
Layer (type)                 Output Shape              Param #   
=================================================================
conv1d_1 (Conv1D)            (None, 2397, 8)           3464      
_________________________________________________________________
conv1d_2 (Conv1D)            (None, 394, 16)           4624      
_________________________________________________________________
conv1d_3 (Conv1D)            (None, 186, 32)           12320     
_________________________________________________________________
conv1d_4 (Conv1D)            (None, 82, 64)            49216     
_________________________________________________________________
lstm_1 (LSTM)                (None, 82, 64)            33024     
_________________________________________________________________
lstm_2 (LSTM)                (None, 32)                12416     
_________________________________________________________________
dense_1 (Dense)              (None, 20)                660       
=================================================================
Total params: 115,724
Trainable params: 115,724
Non-trainable params: 0
_________________________________________________________________

Training:
Epoch #1: Loss:2.9818, Accuracy:0.0572, Validation Loss:2.9593, Validation Accuracy:0.0804
Epoch #2: Loss:2.9479, Accuracy:0.0805, Validation Loss:2.9207, Validation Accuracy:0.0905
…
